Model: "ResNet13"
__________________________________________________________________________________________________
Layer (type)                    Output Shape         Param #     Connected to                     
==================================================================================================
input_10 (InputLayer)           [(None, 32, 32, 3)]  0                                            
__________________________________________________________________________________________________
zero_padding2d_21 (ZeroPadding2 (None, 34, 34, 3)    0           input_10[0][0]                   
__________________________________________________________________________________________________
conv_s3_b1a (Conv2D)            (None, 32, 32, 32)   896         zero_padding2d_21[0][0]          
__________________________________________________________________________________________________
batchN_s3_b1a (BatchNormalizati (None, 32, 32, 32)   128         conv_s3_b1a[0][0]                
__________________________________________________________________________________________________
conv_s3_b1b (Conv2D)            (None, 16, 16, 32)   9248        batchN_s3_b1a[0][0]              
__________________________________________________________________________________________________
conv_s3_b1c (Conv2D)            (None, 16, 16, 32)   896         zero_padding2d_21[0][0]          
__________________________________________________________________________________________________
batchN_s3_b1b (BatchNormalizati (None, 16, 16, 32)   128         conv_s3_b1b[0][0]                
__________________________________________________________________________________________________
batchN_s3_b1c (BatchNormalizati (None, 16, 16, 32)   128         conv_s3_b1c[0][0]                
__________________________________________________________________________________________________
add_81 (Add)                    (None, 16, 16, 32)   0           batchN_s3_b1b[0][0]              
                                                                 batchN_s3_b1c[0][0]              
__________________________________________________________________________________________________
activation_81 (Activation)      (None, 16, 16, 32)   0           add_81[0][0]                     
__________________________________________________________________________________________________
conv_s3_b2a (Conv2D)            (None, 16, 16, 32)   9248        activation_81[0][0]              
__________________________________________________________________________________________________
batchN_s3_b2a (BatchNormalizati (None, 16, 16, 32)   128         conv_s3_b2a[0][0]                
__________________________________________________________________________________________________
conv_s3_b2b (Conv2D)            (None, 16, 16, 32)   9248        batchN_s3_b2a[0][0]              
__________________________________________________________________________________________________
batchN_s3_b2b (BatchNormalizati (None, 16, 16, 32)   128         conv_s3_b2b[0][0]                
__________________________________________________________________________________________________
add_82 (Add)                    (None, 16, 16, 32)   0           batchN_s3_b2b[0][0]              
                                                                 activation_81[0][0]              
__________________________________________________________________________________________________
activation_82 (Activation)      (None, 16, 16, 32)   0           add_82[0][0]                     
__________________________________________________________________________________________________
conv_s3_b3a (Conv2D)            (None, 16, 16, 32)   9248        activation_82[0][0]              
__________________________________________________________________________________________________
batchN_s3_b3a (BatchNormalizati (None, 16, 16, 32)   128         conv_s3_b3a[0][0]                
__________________________________________________________________________________________________
conv_s3_b3b (Conv2D)            (None, 16, 16, 32)   9248        batchN_s3_b3a[0][0]              
__________________________________________________________________________________________________
batchN_s3_b3b (BatchNormalizati (None, 16, 16, 32)   128         conv_s3_b3b[0][0]                
__________________________________________________________________________________________________
add_83 (Add)                    (None, 16, 16, 32)   0           batchN_s3_b3b[0][0]              
                                                                 activation_82[0][0]              
__________________________________________________________________________________________________
activation_83 (Activation)      (None, 16, 16, 32)   0           add_83[0][0]                     
__________________________________________________________________________________________________
zero_padding2d_22 (ZeroPadding2 (None, 18, 18, 32)   0           activation_83[0][0]              
__________________________________________________________________________________________________
conv_s4_b1a (Conv2D)            (None, 16, 16, 64)   18496       zero_padding2d_22[0][0]          
__________________________________________________________________________________________________
batchN_s4_b1a (BatchNormalizati (None, 16, 16, 64)   256         conv_s4_b1a[0][0]                
__________________________________________________________________________________________________
conv_s4_b1b (Conv2D)            (None, 8, 8, 64)     36928       batchN_s4_b1a[0][0]              
__________________________________________________________________________________________________
conv_s4_b1c (Conv2D)            (None, 8, 8, 64)     18496       zero_padding2d_22[0][0]          
__________________________________________________________________________________________________
batchN_s4_b1b (BatchNormalizati (None, 8, 8, 64)     256         conv_s4_b1b[0][0]                
__________________________________________________________________________________________________
batchN_s4_b1c (BatchNormalizati (None, 8, 8, 64)     256         conv_s4_b1c[0][0]                
__________________________________________________________________________________________________
add_84 (Add)                    (None, 8, 8, 64)     0           batchN_s4_b1b[0][0]              
                                                                 batchN_s4_b1c[0][0]              
__________________________________________________________________________________________________
activation_84 (Activation)      (None, 8, 8, 64)     0           add_84[0][0]                     
__________________________________________________________________________________________________
conv_s4_b2a (Conv2D)            (None, 8, 8, 64)     36928       activation_84[0][0]              
__________________________________________________________________________________________________
batchN_s4_b2a (BatchNormalizati (None, 8, 8, 64)     256         conv_s4_b2a[0][0]                
__________________________________________________________________________________________________
conv_s4_b2b (Conv2D)            (None, 8, 8, 64)     36928       batchN_s4_b2a[0][0]              
__________________________________________________________________________________________________
batchN_s4_b2b (BatchNormalizati (None, 8, 8, 64)     256         conv_s4_b2b[0][0]                
__________________________________________________________________________________________________
add_85 (Add)                    (None, 8, 8, 64)     0           batchN_s4_b2b[0][0]              
                                                                 activation_84[0][0]              
__________________________________________________________________________________________________
activation_85 (Activation)      (None, 8, 8, 64)     0           add_85[0][0]                     
__________________________________________________________________________________________________
conv_s4_b3a (Conv2D)            (None, 8, 8, 64)     36928       activation_85[0][0]              
__________________________________________________________________________________________________
batchN_s4_b3a (BatchNormalizati (None, 8, 8, 64)     256         conv_s4_b3a[0][0]                
__________________________________________________________________________________________________
conv_s4_b3b (Conv2D)            (None, 8, 8, 64)     36928       batchN_s4_b3a[0][0]              
__________________________________________________________________________________________________
batchN_s4_b3b (BatchNormalizati (None, 8, 8, 64)     256         conv_s4_b3b[0][0]                
__________________________________________________________________________________________________
add_86 (Add)                    (None, 8, 8, 64)     0           batchN_s4_b3b[0][0]              
                                                                 activation_85[0][0]              
__________________________________________________________________________________________________
activation_86 (Activation)      (None, 8, 8, 64)     0           add_86[0][0]                     
__________________________________________________________________________________________________
globalavg_pool (GlobalAveragePo (None, 64)           0           activation_86[0][0]              
__________________________________________________________________________________________________
flatten_8 (Flatten)             (None, 64)           0           globalavg_pool[0][0]             
__________________________________________________________________________________________________
dense_8 (Dense)                 (None, 10)           650         flatten_8[0][0]                  
==================================================================================================
Total params: 273,002
Trainable params: 271,658
Non-trainable params: 1,344
__________________________________________________________________________________________________

Epoch 00001: LearningRateScheduler reducing learning rate to 0.1.
Epoch 1/165
391/391 [==============================] - 41s 106ms/step - loss: 1.6259 - accuracy: 0.4565 - val_loss: 1.7279 - val_accuracy: 0.4628 - lr: 0.1000
…
