Model: "WResNet20"
__________________________________________________________________________________________________
Layer (type)                    Output Shape         Param #     Connected to                     
==================================================================================================
input_3 (InputLayer)            [(None, 32, 32, 3)]  0                                            
__________________________________________________________________________________________________
conv_s1_b1 (Conv2D)             (None, 32, 32, 128)  3584        input_3[0][0]                    
__________________________________________________________________________________________________
batchN_s1_b1 (BatchNormalizatio (None, 32, 32, 128)  512         conv_s1_b1[0][0]                 
__________________________________________________________________________________________________
conv_s2_b1a (Conv2D)            (None, 32, 32, 128)  147584      batchN_s1_b1[0][0]               
__________________________________________________________________________________________________
batchN_s2_b1a (BatchNormalizati (None, 32, 32, 128)  512         conv_s2_b1a[0][0]                
__________________________________________________________________________________________________
dropout_18 (Dropout)            (None, 32, 32, 128)  0           batchN_s2_b1a[0][0]              
__________________________________________________________________________________________________
conv_s2_b1b (Conv2D)            (None, 32, 32, 128)  147584      dropout_18[0][0]                 
__________________________________________________________________________________________________
batchN_s2_b1b (BatchNormalizati (None, 32, 32, 128)  512         conv_s2_b1b[0][0]                
__________________________________________________________________________________________________
add_18 (Add)                    (None, 32, 32, 128)  0           batchN_s2_b1b[0][0]              
                                                                 batchN_s1_b1[0][0]               
__________________________________________________________________________________________________
activation_18 (Activation)      (None, 32, 32, 128)  0           add_18[0][0]                     
__________________________________________________________________________________________________
conv_s2_b2a (Conv2D)            (None, 32, 32, 128)  147584      activation_18[0][0]              
__________________________________________________________________________________________________
batchN_s2_b2a (BatchNormalizati (None, 32, 32, 128)  512         conv_s2_b2a[0][0]                
__________________________________________________________________________________________________
dropout_19 (Dropout)            (None, 32, 32, 128)  0           batchN_s2_b2a[0][0]              
__________________________________________________________________________________________________
conv_s2_b2b (Conv2D)            (None, 32, 32, 128)  147584      dropout_19[0][0]                 
__________________________________________________________________________________________________
batchN_s2_b2b (BatchNormalizati (None, 32, 32, 128)  512         conv_s2_b2b[0][0]                
__________________________________________________________________________________________________
add_19 (Add)                    (None, 32, 32, 128)  0           batchN_s2_b2b[0][0]              
                                                                 activation_18[0][0]              
__________________________________________________________________________________________________
activation_19 (Activation)      (None, 32, 32, 128)  0           add_19[0][0]                     
__________________________________________________________________________________________________
conv_s2_b3a (Conv2D)            (None, 32, 32, 128)  147584      activation_19[0][0]              
__________________________________________________________________________________________________
batchN_s2_b3a (BatchNormalizati (None, 32, 32, 128)  512         conv_s2_b3a[0][0]                
__________________________________________________________________________________________________
dropout_20 (Dropout)            (None, 32, 32, 128)  0           batchN_s2_b3a[0][0]              
__________________________________________________________________________________________________
conv_s2_b3b (Conv2D)            (None, 32, 32, 128)  147584      dropout_20[0][0]                 
__________________________________________________________________________________________________
batchN_s2_b3b (BatchNormalizati (None, 32, 32, 128)  512         conv_s2_b3b[0][0]                
__________________________________________________________________________________________________
add_20 (Add)                    (None, 32, 32, 128)  0           batchN_s2_b3b[0][0]              
                                                                 activation_19[0][0]              
__________________________________________________________________________________________________
activation_20 (Activation)      (None, 32, 32, 128)  0           add_20[0][0]                     
__________________________________________________________________________________________________
zero_padding2d_4 (ZeroPadding2D (None, 34, 34, 128)  0           activation_20[0][0]              
__________________________________________________________________________________________________
conv_s3_b1a (Conv2D)            (None, 16, 16, 256)  295168      zero_padding2d_4[0][0]           
__________________________________________________________________________________________________
batchN_s3_b1a (BatchNormalizati (None, 16, 16, 256)  1024        conv_s3_b1a[0][0]                
__________________________________________________________________________________________________
dropout_21 (Dropout)            (None, 16, 16, 256)  0           batchN_s3_b1a[0][0]              
__________________________________________________________________________________________________
conv_s3_b1b (Conv2D)            (None, 16, 16, 256)  590080      dropout_21[0][0]                 
__________________________________________________________________________________________________
conv_s3_b1c (Conv2D)            (None, 16, 16, 256)  295168      zero_padding2d_4[0][0]           
__________________________________________________________________________________________________
batchN_s3_b1b (BatchNormalizati (None, 16, 16, 256)  1024        conv_s3_b1b[0][0]                
__________________________________________________________________________________________________
batchN_s3_b1c (BatchNormalizati (None, 16, 16, 256)  1024        conv_s3_b1c[0][0]                
__________________________________________________________________________________________________
add_21 (Add)                    (None, 16, 16, 256)  0           batchN_s3_b1b[0][0]              
                                                                 batchN_s3_b1c[0][0]              
__________________________________________________________________________________________________
activation_21 (Activation)      (None, 16, 16, 256)  0           add_21[0][0]                     
__________________________________________________________________________________________________
conv_s3_b2a (Conv2D)            (None, 16, 16, 256)  590080      activation_21[0][0]              
__________________________________________________________________________________________________
batchN_s3_b2a (BatchNormalizati (None, 16, 16, 256)  1024        conv_s3_b2a[0][0]                
__________________________________________________________________________________________________
dropout_22 (Dropout)            (None, 16, 16, 256)  0           batchN_s3_b2a[0][0]              
__________________________________________________________________________________________________
conv_s3_b2b (Conv2D)            (None, 16, 16, 256)  590080      dropout_22[0][0]                 
__________________________________________________________________________________________________
batchN_s3_b2b (BatchNormalizati (None, 16, 16, 256)  1024        conv_s3_b2b[0][0]                
__________________________________________________________________________________________________
add_22 (Add)                    (None, 16, 16, 256)  0           batchN_s3_b2b[0][0]              
                                                                 activation_21[0][0]              
__________________________________________________________________________________________________
activation_22 (Activation)      (None, 16, 16, 256)  0           add_22[0][0]                     
__________________________________________________________________________________________________
conv_s3_b3a (Conv2D)            (None, 16, 16, 256)  590080      activation_22[0][0]              
__________________________________________________________________________________________________
batchN_s3_b3a (BatchNormalizati (None, 16, 16, 256)  1024        conv_s3_b3a[0][0]                
__________________________________________________________________________________________________
dropout_23 (Dropout)            (None, 16, 16, 256)  0           batchN_s3_b3a[0][0]              
__________________________________________________________________________________________________
conv_s3_b3b (Conv2D)            (None, 16, 16, 256)  590080      dropout_23[0][0]                 
__________________________________________________________________________________________________
batchN_s3_b3b (BatchNormalizati (None, 16, 16, 256)  1024        conv_s3_b3b[0][0]                
__________________________________________________________________________________________________
add_23 (Add)                    (None, 16, 16, 256)  0           batchN_s3_b3b[0][0]              
                                                                 activation_22[0][0]              
__________________________________________________________________________________________________
activation_23 (Activation)      (None, 16, 16, 256)  0           add_23[0][0]                     
__________________________________________________________________________________________________
zero_padding2d_5 (ZeroPadding2D (None, 18, 18, 256)  0           activation_23[0][0]              
__________________________________________________________________________________________________
conv_s4_b1a (Conv2D)            (None, 8, 8, 512)    1180160     zero_padding2d_5[0][0]           
__________________________________________________________________________________________________
batchN_s4_b1a (BatchNormalizati (None, 8, 8, 512)    2048        conv_s4_b1a[0][0]                
__________________________________________________________________________________________________
dropout_24 (Dropout)            (None, 8, 8, 512)    0           batchN_s4_b1a[0][0]              
__________________________________________________________________________________________________
conv_s4_b1b (Conv2D)            (None, 8, 8, 512)    2359808     dropout_24[0][0]                 
__________________________________________________________________________________________________
conv_s4_b1c (Conv2D)            (None, 8, 8, 512)    1180160     zero_padding2d_5[0][0]           
__________________________________________________________________________________________________
batchN_s4_b1b (BatchNormalizati (None, 8, 8, 512)    2048        conv_s4_b1b[0][0]                
__________________________________________________________________________________________________
batchN_s4_b1c (BatchNormalizati (None, 8, 8, 512)    2048        conv_s4_b1c[0][0]                
__________________________________________________________________________________________________
add_24 (Add)                    (None, 8, 8, 512)    0           batchN_s4_b1b[0][0]              
                                                                 batchN_s4_b1c[0][0]              
__________________________________________________________________________________________________
activation_24 (Activation)      (None, 8, 8, 512)    0           add_24[0][0]                     
__________________________________________________________________________________________________
conv_s4_b2a (Conv2D)            (None, 8, 8, 512)    2359808     activation_24[0][0]              
__________________________________________________________________________________________________
batchN_s4_b2a (BatchNormalizati (None, 8, 8, 512)    2048        conv_s4_b2a[0][0]                
__________________________________________________________________________________________________
dropout_25 (Dropout)            (None, 8, 8, 512)    0           batchN_s4_b2a[0][0]              
__________________________________________________________________________________________________
conv_s4_b2b (Conv2D)            (None, 8, 8, 512)    2359808     dropout_25[0][0]                 
__________________________________________________________________________________________________
batchN_s4_b2b (BatchNormalizati (None, 8, 8, 512)    2048        conv_s4_b2b[0][0]                
__________________________________________________________________________________________________
add_25 (Add)                    (None, 8, 8, 512)    0           batchN_s4_b2b[0][0]              
                                                                 activation_24[0][0]              
__________________________________________________________________________________________________
activation_25 (Activation)      (None, 8, 8, 512)    0           add_25[0][0]                     
__________________________________________________________________________________________________
conv_s4_b3a (Conv2D)            (None, 8, 8, 512)    2359808     activation_25[0][0]              
__________________________________________________________________________________________________
batchN_s4_b3a (BatchNormalizati (None, 8, 8, 512)    2048        conv_s4_b3a[0][0]                
__________________________________________________________________________________________________
dropout_26 (Dropout)            (None, 8, 8, 512)    0           batchN_s4_b3a[0][0]              
__________________________________________________________________________________________________
conv_s4_b3b (Conv2D)            (None, 8, 8, 512)    2359808     dropout_26[0][0]                 
__________________________________________________________________________________________________
batchN_s4_b3b (BatchNormalizati (None, 8, 8, 512)    2048        conv_s4_b3b[0][0]                
__________________________________________________________________________________________________
add_26 (Add)                    (None, 8, 8, 512)    0           batchN_s4_b3b[0][0]              
                                                                 activation_25[0][0]              
__________________________________________________________________________________________________
activation_26 (Activation)      (None, 8, 8, 512)    0           add_26[0][0]                     
__________________________________________________________________________________________________
avg_pool (AveragePooling2D)     (None, 1, 1, 512)    0           activation_26[0][0]              
__________________________________________________________________________________________________
flatten_2 (Flatten)             (None, 512)          0           avg_pool[0][0]                   
__________________________________________________________________________________________________
dense_2 (Dense)                 (None, 10)           5130        flatten_2[0][0]                  
==================================================================================================
Total params: 18,619,402
Trainable params: 18,606,858
Non-trainable params: 12,544
__________________________________________________________________________________________________

Epoch 00001: LearningRateScheduler reducing learning rate to 0.1.
Epoch 1/165
…
