2020-06-22 22:23:36.069078: I tensorflow/core/platform/cpu_feature_guard.cc:142] Your CPU supports instructions that this TensorFlow binary was not compiled to use: AVX2
Model: "sequential"
_________________________________________________________________
Layer (type)                 Output Shape              Param #
=================================================================
conv2d (Conv2D)              (None, 32, 32, 32)        896
_________________________________________________________________
batch_normalization (BatchNo (None, 32, 32, 32)        128
_________________________________________________________________
conv2d_1 (Conv2D)            (None, 30, 30, 32)        9248
_________________________________________________________________
batch_normalization_1 (Batch (None, 30, 30, 32)        128
_________________________________________________________________
max_pooling2d (MaxPooling2D) (None, 15, 15, 32)        0
_________________________________________________________________
dropout (Dropout)            (None, 15, 15, 32)        0
_________________________________________________________________
conv2d_2 (Conv2D)            (None, 15, 15, 64)        18496
_________________________________________________________________
batch_normalization_2 (Batch (None, 15, 15, 64)        256
_________________________________________________________________
conv2d_3 (Conv2D)            (None, 13, 13, 64)        36928
_________________________________________________________________
batch_normalization_3 (Batch (None, 13, 13, 64)        256
_________________________________________________________________
max_pooling2d_1 (MaxPooling2 (None, 6, 6, 64)          0
_________________________________________________________________
dropout_1 (Dropout)          (None, 6, 6, 64)          0
_________________________________________________________________
conv2d_4 (Conv2D)            (None, 6, 6, 96)          55392
_________________________________________________________________
batch_normalization_4 (Batch (None, 6, 6, 96)          384
_________________________________________________________________
conv2d_5 (Conv2D)            (None, 4, 4, 96)          83040
_________________________________________________________________
batch_normalization_5 (Batch (None, 4, 4, 96)          384
_________________________________________________________________
dropout_2 (Dropout)          (None, 4, 4, 96)          0
_________________________________________________________________
conv2d_6 (Conv2D)            (None, 4, 4, 128)         110720
_________________________________________________________________
batch_normalization_6 (Batch (None, 4, 4, 128)         512
_________________________________________________________________
conv2d_7 (Conv2D)            (None, 2, 2, 128)         147584
_________________________________________________________________
batch_normalization_7 (Batch (None, 2, 2, 128)         512
_________________________________________________________________
max_pooling2d_2 (MaxPooling2 (None, 1, 1, 128)         0
_________________________________________________________________
dropout_3 (Dropout)          (None, 1, 1, 128)         0
_________________________________________________________________
flatten (Flatten)            (None, 128)               0
_________________________________________________________________
dense (Dense)                (None, 512)               66048
_________________________________________________________________
batch_normalization_8 (Batch (None, 512)               2048
_________________________________________________________________
activation (Activation)      (None, 512)               0
_________________________________________________________________
dropout_4 (Dropout)          (None, 512)               0
_________________________________________________________________
dense_1 (Dense)              (None, 10)                5130
=================================================================
Total params: 538,090
Trainable params: 535,786
Non-trainable params: 2,304
_________________________________________________________________
Train on 50000 samples, validate on 10000 samples
Epoch 1/40
50000/50000 - 222s - loss: 1.6880 - accuracy: 0.4172 - val_loss: 1.1994 - val_accuracy: 0.5841
Epoch 2/40
50000/50000 - 209s - loss: 1.1666 - accuracy: 0.5935 - val_loss: 1.1993 - val_accuracy: 0.5897
…
