2020-06-24 03:22:25.310109: I tensorflow/core/platform/cpu_feature_guard.cc:142] Your CPU supports instructions that this TensorFlow binary was not compiled to use: AVX2
Model: "sequential"
_________________________________________________________________
Layer (type)                 Output Shape              Param #
=================================================================
conv2d (Conv2D)              (None, 32, 32, 32)        896
_________________________________________________________________
batch_normalization (BatchNo (None, 32, 32, 32)        128
_________________________________________________________________
conv2d_1 (Conv2D)            (None, 30, 30, 32)        9248
_________________________________________________________________
batch_normalization_1 (Batch (None, 30, 30, 32)        128
_________________________________________________________________
max_pooling2d (MaxPooling2D) (None, 15, 15, 32)        0
_________________________________________________________________
dropout (Dropout)            (None, 15, 15, 32)        0
_________________________________________________________________
conv2d_2 (Conv2D)            (None, 15, 15, 64)        18496
_________________________________________________________________
batch_normalization_2 (Batch (None, 15, 15, 64)        256
_________________________________________________________________
conv2d_3 (Conv2D)            (None, 15, 15, 64)        36928
_________________________________________________________________
batch_normalization_3 (Batch (None, 15, 15, 64)        256
_________________________________________________________________
max_pooling2d_1 (MaxPooling2 (None, 7, 7, 64)          0
_________________________________________________________________
dropout_1 (Dropout)          (None, 7, 7, 64)          0
_________________________________________________________________
conv2d_4 (Conv2D)            (None, 7, 7, 128)         73856
_________________________________________________________________
batch_normalization_4 (Batch (None, 7, 7, 128)         512
_________________________________________________________________
conv2d_5 (Conv2D)            (None, 7, 7, 128)         147584
_________________________________________________________________
batch_normalization_5 (Batch (None, 7, 7, 128)         512
_________________________________________________________________
dropout_2 (Dropout)          (None, 7, 7, 128)         0
_________________________________________________________________
flatten (Flatten)            (None, 6272)              0
_________________________________________________________________
dense (Dense)                (None, 1024)              6423552
_________________________________________________________________
batch_normalization_6 (Batch (None, 1024)              4096
_________________________________________________________________
activation (Activation)      (None, 1024)              0
_________________________________________________________________
dropout_3 (Dropout)          (None, 1024)              0
_________________________________________________________________
dense_1 (Dense)              (None, 10)                10250
=================================================================
Total params: 6,726,698
Trainable params: 6,723,754
Non-trainable params: 2,944
_________________________________________________________________
Train on 50000 samples, validate on 10000 samples
Epoch 1/250
50000/50000 - 281s - loss: 1.8764 - accuracy: 0.4427 - val_loss: 1.4741 - val_accuracy: 0.5161
Epoch 2/250
Traceback (most recent call last):
…
